…
    "        x = F.leaky_relu(self.conv5(x),0.2,inplace=True)\n",
    "\n",
    "        \n",
    "        \n",
    "        return torch.sigmoid(x).reshape(-1,1)"
   ]
  },
  {
   "cell_type": "code",
   "execution_count": 12,
   "metadata": {
    "scrolled": false
   },
   "outputs": [
    {
     "name": "stdout",
     "output_type": "stream",
     "text": [
      "----------------------------------------------------------------\n",
      "        Layer (type)               Output Shape         Param #\n",
      "================================================================\n",
      "            Conv2d-1           [-1, 64, 17, 17]           3,072\n",
      "            Conv2d-2            [-1, 128, 9, 9]         131,072\n",
      "       BatchNorm2d-3            [-1, 128, 9, 9]             256\n",
      "            Conv2d-4            [-1, 256, 5, 5]         524,288\n",
      "       BatchNorm2d-5            [-1, 256, 5, 5]             512\n",
      "            Conv2d-6            [-1, 512, 3, 3]       2,097,152\n",
      "       BatchNorm2d-7            [-1, 512, 3, 3]           1,024\n",
      "            Conv2d-8              [-1, 1, 1, 1]           4,608\n",
      "================================================================\n",
      "Total params: 2,761,984\n",
      "Trainable params: 2,761,984\n",
      "Non-trainable params: 0\n",
      "----------------------------------------------------------------\n",
      "Input size (MB): 0.01\n",
      "Forward/backward pass size (MB): 0.47\n",
      "Params size (MB): 10.54\n",
      "Estimated Total Size (MB): 11.02\n",
…
    "        x = self.batch_norm3(x)\n",
    "        \n",
    "        x = self.convT4(x)\n",
    "\n",
    "        \n",
    "        return torch.tanh(x)"
   ]
  },
  {
   "cell_type": "code",
   "execution_count": 18,
   "metadata": {},
   "outputs": [
    {
     "name": "stdout",
     "output_type": "stream",
     "text": [
      "----------------------------------------------------------------\n",
      "        Layer (type)               Output Shape         Param #\n",
      "================================================================\n",
      "   ConvTranspose2d-1            [-1, 512, 2, 2]         819,200\n",
      "       BatchNorm2d-2            [-1, 512, 2, 2]           1,024\n",
      "   ConvTranspose2d-3            [-1, 256, 4, 4]       2,097,152\n",
      "       BatchNorm2d-4            [-1, 256, 4, 4]             512\n",
      "   ConvTranspose2d-5            [-1, 128, 8, 8]         524,288\n",
      "       BatchNorm2d-6            [-1, 128, 8, 8]             256\n",
      "   ConvTranspose2d-7           [-1, 64, 16, 16]         131,072\n",
      "       BatchNorm2d-8           [-1, 64, 16, 16]             128\n",
      "   ConvTranspose2d-9            [-1, 3, 32, 32]           3,072\n",
      "================================================================\n",
      "Total params: 3,576,704\n",
      "Trainable params: 3,576,704\n",
      "Non-trainable params: 0\n",
      "----------------------------------------------------------------\n",
      "Input size (MB): 0.00\n",
      "Forward/backward pass size (MB): 0.49\n",
      "Params size (MB): 13.64\n",
      "Estimated Total Size (MB): 14.14\n",
…
